reallynet.pt (torch_old, 984747 bytes, 12 tensors)

conv1.0.weight f4 [16, 1, 5, 5]
00000000: 663b f2bb 699b 153d 9539 48bd 6100 38be
00000010: 879d 873c 7124 003d f723 ac3d c16c 323e
00000020: c8fe dcbd 73c5 d0bd eeb2 ad3a 996f 143d
00000030: 930e c6bd 2ee5 30be 4b2a 233e ca2a ce3c
00000040: 17eb 463e d4b1 3abe 0cdd a6bd 3428 b6bb
00000050: b1d1 6dbd fccd 16be 7b08 3bbe 81cc 523e
00000060: f647 b8bd 0ced 3abe 02e0 23be ce8e fe3d
00000070: 01ec 34be 1248 1d3e 4b8d 0e3e ad46 e8bd
00000080: fc27 bf3d 5432 cabd 493f 21be e7a4 47be
00000090: 29b4 b33d 8e1e 343e e8bd 263e 0921 103e
000000a0: 26de 21be 9b1a d8bd a1df 323e 7d5e 2bbe
000000b0: 745c 963c 26f4 00be 5fd4 1b3e c40e 3dbe
000000c0: 516e ea3d 7e3c 363d 8ffc 16bd f9ac 42be
000000d0: 89c3 1a3e 0ab1 103c 8e2c 663d 0b73 44be
000000e0: 3a95 ab3c 4b31 21be 4f62 5e3d f4b9 1d3d
000000f0: eb72 fc3d 5a41 2e3e 9052 eb3d 50f1 f4bd
00000100: 8468 143e 8954 293e c243 7cbd 4ce3 04be
00000110: fc52 29be 62c6 1d3e 2fdc 003d 2a5f 303e
00000120: ba44 04be 55b2 153d bdc8 b4bd 6791 633e
00000130: 2216 483d 156f ecbd b098 09bd 909a 323d
00000140: e080 f7bd 3c20 153e 8049 adbd 145d 8a3d
00000150: 1d6f 53ba e05f 7bbd fa87 0b3d 884c 33be
00000160: 3471 613d 19cd 0bbd 7d05 3cbe 4206 d2bd
00000170: b624 303e 2255 00be 1b3b 643d 2433 05be
00000180: 6f40 23be f241 123e c77d 283e 920a 193e
00000190: a849 f73c 2fb1 d13d 7203 a8bd a3ec 74bc
000001a0: d062 1a3e 3e35 8abd e1f1 ddbd 64db 01be
000001b0: c7c7 393e 3b19 113e 614e 4fbe 7e0b 7c3d
000001c0: 32f3 4bbe c9a9 b1bd 9122 e9bd aa7f 873d
000001d0: 5ac3 b9bc 0d42 533d 25ec e7bd cbe7 b63d
000001e0: 9efd 1ebe d3e0 e3bc ee81 c23d 0258 443e
000001f0: fa20 11be 1cb7 733d 238c 5abe 688d 1d3e
00000200: 761c 3ebd 0458 3d3e 9acf 8fbd 7509 5cbe
00000210: 2030 c43d e720 c6bd eba9 263d 6ce6 00bd
00000220: 62a8 94bd 0ebd f0bc 1724 8fbd 9ca7 2ebe
00000230: 2963 f5bd d512 a4bd bdf8 bc3d eb1e 1ebe
00000240: c004 003e 43ad e03d 677a 6e3e 613e 94bd
00000250: 2e57 42bc 35da cabc a626 0abe b8fa 183e
00000260: 8d35 633e ddee 84bd 4163 5cbe 3eda 183e
00000270: 75e1 84bd 1aca dfbd d686 b73d 3cc0 19be
00000280: 21f8 163e 51a3 14be 8630 12be d128 46bd
00000290: 7c3d a13d b76a 173a 42df bd3c 1082 123e
000002a0: 60a0 1f3e 485f 813c ca65 2cbe ba9e 323d
000002b0: 0772 3fbe 172d 36be 81e7 113e c5f9 84bd
000002c0: bdf2 353d 9c98 81bd c386 d9bd a633 3ebe
000002d0: 0d43 c3bd cfe2 7cbc 3e12 e43d 15c0 a2bc
000002e0: acbd 9dbd 7546 063e d171 f8bd 003d b33c
000002f0: 3778 2f3e faf9 cdbc 600f 40be e94c e6bd
00000300: cd27 77bc 3f05 ca3d 2c60 04bc 430d 4dbe
00000310: 0c78 e9bd af6b e23d 8f6a 1abd c127 5e3e
00000320: 4d89 80bd 7dac 953c fa13 513e f6f3 c53d
00000330: 3912 8dbc 6180 933d 54e7 383e ba49 3abe
00000340: 0d4b c4bc 0013 03be e4ac 09be b9fc 02be
00000350: 0c38 75bd c91e e8bd 1510 13be 54fd 62bd
00000360: e30f 32be 65cd 2f3e 288d c73d 33b9 173d
00000370: 1108 103e 458c 2a3e 7469 d33c 2893 b8bd
00000380: 50aa fcbd ad8d 12be 1d20 4c3c 2806 6dbe
00000390: 017a f5bd 52a2 713e 537e c3bd e035 e63d
000003a0: 537e 9dbc 80b2 7b3c 671b 813e d675 bbbc
000003b0: 38ee fcbd 8220 6abe 7237 61bd 1ee6 19be
000003c0: 3a64 f23b f432 ca3d 44b7 9639 204c 923d
000003d0: 5019 63be fb63 8bbc 3cfc 913d 14a1 fb3c
000003e0: b622 30bd f56e 67be 38fe 813d 7f8b 01be
000003f0: d843 5bbe 15b4 fa3b 6510 a73d 432b 963d
-0.0073923348 0.036525164 -0.04888304 -0.17968895 0.016554607 0.031284753 0.08405297 0.17424299
-0.10790783 -0.101939104 0.0013252178 0.03623924 -0.096707486 -0.17274925 0.15934102 0.025166888
0.19425617 -0.18231899 -0.0814763 -0.005558992 -0.058061305 -0.14727014 -0.18264954 0.20585825
-0.089981005 -0.18254489 -0.16003421 0.124295816 -0.17668153 0.15359524 0.13921086 -0.11341605
0.09333798 -0.098728806 -0.15746798 -0.19496499 0.08774597 0.1758978 0.16283381 0.14075102
-0.15807399 -0.105519496 0.1746812 -0.16735263 0.018354632 -0.12593135 0.15217732 -0.18462664
0.114468224 0.044491284 -0.036861952 -0.19011296 0.15113653 0.008831272 0.056194834 -0.1918451
0.02094518 -0.1574146 0.054292973 0.038507417 0.12326606 0.17017117 0.11490357 -0.11960089
0.14492995 0.16536154 -0.061588056 -0.12977332 -0.16535562 0.15407708 0.031459983 0.17223802
-0.12916842 0.036547024 -0.0882735 0.22223435 0.048849232 -0.11544625 -0.03359288 0.043604434
-0.12085128 0.14563078 -0.08461285 0.067560345 -0.00080655684 -0.06137073 0.034065224 -0.17509663
0.0550396 -0.034131143 -0.18361469 -0.102551 0.17201504 -0.12532476 0.05572043 -0.1300779
-0.15942548 0.14282969 0.1645423 0.14945439 0.03018649 0.10238873 -0.08203782 -0.014948997
0.15076756 -0.067484364 -0.1083715 -0.12681347 0.18142615 0.14169781 -0.20244743 0.061534397
-0.1991699 -0.08674962 -0.11383546 0.06616147 -0.022676159 0.051576663 -0.11324338 0.0893093
-0.15526435 -0.027817165 0.09497438 0.19174197 -0.14172736 0.0595008 -0.2134252 0.15385973
-0.04641386 0.18490607 -0.07022019 -0.21487983 0.095794916 -0.096742444 0.04068939 -0.031469747
-0.07258679 -0.029387023 -0.069893055 -0.17056125 -0.11981804 -0.080114044 0.092271306 -0.15441482
0.12501812 0.10970547 0.2328888 -0.0723846 -0.011861606 -0.024762252 -0.13491306 0.14939392
0.22188397 -0.06490872 -0.21522237 0.14927003 -0.06488315 -0.1092722 0.08961265 -0.15014738
0.14743091 -0.14515425 -0.14276323 -0.04837877 0.07873055 0.00057760946 0.023177747 0.14307427
0.15588522 0.015792504 -0.16835704 0.043608405 -0.18695842 -0.17790638 0.14248468 -0.06492952
0.044420946 -0.06327936 -0.10621407 -0.1857439 -0.09534273 -0.015434935 0.11136292 -0.019866982
-0.07702193 0.13112815 -0.12131084 0.021879673 0.17135702 -0.025143612 -0.18755865 -0.11245138
-0.015085173 0.09864282 -0.00807957 -0.2002459 -0.1139985 0.11055695 -0.03769928 0.21694852
-0.06276188 0.018270725 0.20417777 0.096656725 -0.017220603 0.07202221 0.18056995 -0.18192187
-0.023961568 -0.12800217 -0.13444859 -0.12791719 -0.059867904 -0.11333997 -0.14361604 -0.055417374
-0.17388873 0.17168196 0.0974372 0.037041854 0.14065577 0.16655071 0.02580712 -0.09012443
-0.12337172 -0.14311858 0.012458828 -0.2314688 -0.11986161 0.23597077 -0.09545579 0.112407446
-0.019225275 0.015362382 0.2521622 -0.022883337 -0.12350124 -0.22863963 -0.054984517 -0.15029189
0.007397202 0.09873 0.00028746773 0.07143426 -0.22177625 -0.017015448 0.07128188 0.030716456
-0.043001853 -0.2260092 0.063473165 -0.1265087 -0.21412599 0.007650862 0.08157424 0.0733247

conv1.0.bias f4 [16]
00000000: 0bd9 063e cf97 543d 9e69 32be 4ffd c0bd
00000010: 1a41 1a3e cb75 e4bd 4fef 8f3d e717 29be
00000020: eae6 233d 47f4 bdbd 2485 983d f127 9ebd
00000030: e0c4 0e3e d299 22be ae21 8d3d a6aa 153d
0.13168733 0.05190259 -0.17423102 -0.09423315 0.15063897 -0.1115528 0.07028066 -0.16513024
0.04001514 -0.09275108 0.074472696 -0.07722462 0.1394229 -0.1587899 0.068911895 0.036539696

conv2.0.weight f4 [36, 16, 5, 5]
00000000: 5593 613d aeee c4bc 2a1a c13c 200f 79bd
00000010: cb2e 18bd 6df5 31bd 7a65 22bc 77f1 bd3b
00000020: 3f7a f13c f965 97bc 8e74 253b 85ea 66bd
00000030: 04a4 4ebd 25c6 9bbc abff 223d 861e 01bd
00000040: 43fa 21bc 5eb5 37bd 65ec 463d 25a2 333d
00000050: b35e 383c ffcf b93c 0763 d63c 45f6 18bd
00000060: 9ee5 eb3c f3d6 5abd 6cfd 5739 ddfa a4bc
00000070: 58d3 02bc fc91 593d 39bc db3c 9119 39bd
00000080: e93e aebc 3a08 52bb c656 1cbc 9c59 cdbc
00000090: fc3f 78b9 88ea 2ebd b8a6 8abc daa6 75bd
000000a0: a770 d0bc 8ec5 c13c ba7f 10bc a22f 1a3b
000000b0: 2e26 88bc fa8b b63c c8b3 3f3d 52c3 fabc
000000c0: 6ebd 053b f294 3b3c 2b46 24bd 0086 293c
000000d0: 4406 f83c d3c6 48bd b594 dabc 1b17 4b3c
000000e0: 881e 62bc 26c2 223c 0a1b a83c 5099 603c
000000f0: 249a 8a3b 2b3d 533c 8b74 873c fd5b 803b
00000100: fc8d 8e3a f3cb bfba d524 023d e729 00bb
00000110: fa87 0ebd 06b7 203d 6233 a83d b8f3 06bd
00000120: 754d ae3c 0a7f dd3b 945c bdbc f030 64bc
00000130: e00c f6bc c51a 83bd 7682 cebc ffea dc3c
00000140: e277 e8bc 6d41 0abd 82e2 c23c e499 c1bc
00000150: d99e 13bd b304 583d 35cf a83c e95d 1c3d
00000160: 85a0 39bd 8175 023c 3f67 2f3d 424e e63c
00000170: 454f 6e3c 829e b13c bb1d 19bd aef6 44bd
00000180: 4f14 83bd eeef 93bb bb8c cebc 0605 0a3d
00000190: 765e 923c 9896 a13c 36d2 b93c d391 653d
000001a0: 11ec e4bc b1fd 57bd afc8 793d 9b99 e23c
000001b0: 6ab3 623d 221a 4b3c dc30 213c bcf9 fabb
000001c0: 47b0 093d aab6 2e3c 40b3 b63c d058 1fbd
000001d0: cbef c9bc ad8d eabb a43d 52b9 973d c5bc
000001e0: 475a 353d 5311 573c 6d65 d8bc 970a f73c
000001f0: ec80 2abd 3c2b 783c 86c5 213d 38cb 3ebd
00000200: f237 d53c 57b0 d1bc 36d0 38bc 8c15 fe3c
00000210: 85ca c3bb de58 0f3d 520d 893d c7b8 833c
00000220: c00c 203d 28af 39bc 5eb8 aabc 21a4 49bd
00000230: 0f26 3b3c 30ca 833c 6660 33bd 4e67 c4bc
00000240: 76d0 6ebd 97bb 97bc fa3b 0d3c 4e50 16bd
00000250: e8c6 773c e560 c53d 609f c8bc 4ba5 533d
00000260: b981 fc3b 7f74 bfbc 4ac3 753d e1cf 27bb
00000270: e10a 393c d236 263d 6f7d 9d3b 8065 ddbc
00000280: 6934 f43c 2cde 04bc bd8d 1bbc 89e2 853c
00000290: 4410 4b3d 50cd a73c 010f f0bc 16de 1dba
000002a0: dec3 1cbd 7165 bc3c 882f 3fbd c97b ddbc
000002b0: 4dc4 42bb 17b8 27bd bc0c f0bb b0ee e9bc
000002c0: 6d43 b9bc 8641 0a3d 61b4 e83c fb76 82bc
000002d0: ab2d c53c c340 1f3c 2117 87bd 2555 e9bb
000002e0: 2691 b73d 1246 db3b 06d2 e6bb eb99 153d
000002f0: 296b fabc 4213 b639 a179 51bb bc80 0ebd
00000300: e3fe 623c 4c31 13bc 7f27 f13c 27e2 813c
00000310: a555 c33c 699a 23bd ba7e 623a cbee 81bc
00000320: 4d6b 383d 45b2 a4bc 5671 4fbc 6d7a 5e3c
00000330: f0c0 d23b adab df3b c834 fbbc d6cc cd3c
00000340: 2247 4c3d 40e5 013d 183d 833c 3c0f 16bc
00000350: b1eb 853c fdfd 76bc 298d 52bc f78c bebc
00000360: 56ef c13b 1957 3f3c ec96 41bb bcd7 31bd
00000370: 4689 12bd 66ff 22ba 30b4 da3b 9655 27bd
00000380: da7d 363d 194d 273d 3eb6 b3bd 899c 34bd
00000390: 4ef6 753d b296 863d d615 01bc a34d cf3c
000003a0: f205 9fbc 27e5 afbd 161b e73c b6ce 74bb
000003b0: d299 c23a bb98 ab3c d8c7 abbc 946c a43c
000003c0: a5b0 9fbd 3232 7fbd 1f64 013d f843 71bc
000003d0: 61cd 003d eeba 47bd 4590 bebc 5775 bfbc
000003e0: e5e3 073d 3abd 42bc 3d85 e23c 5924 e63b
000003f0: 3eb4 9ebc a551 153d d6c6 383d 398e 1ebd
0.055072147 -0.024039593 0.023572046 -0.06080544 -0.037154 -0.043446947 -0.009911889 0.005796607
0.029477237 -0.018481242 0.0025246474 -0.056376 -0.050449386 -0.019015381 0.039794605 -0.03152325
-0.009886327 -0.0448507 0.048565287 0.043855805 0.011253047 0.022682188 0.026170267 -0.037344236
0.028796013 -0.053427648 0.00020598405 -0.020139152 -0.007984959 0.053117737 0.02682315 -0.045190398
-0.021270232 -0.003204836 -0.009542173 -0.025067143 -0.00023674959 -0.042704135 -0.0169252 -0.059973575
-0.025444342 0.023653772 -0.008819515 0.0023526927 -0.016619768 0.022283543 0.046802312 -0.030610714
0.0020407098 0.011449086 -0.04010598 0.0103468895 0.030276425 -0.04901774 -0.026682237 0.0123956455
-0.0138012245 0.009933984 0.020520706 0.013708428 0.004229801 0.012893002 0.016535064 0.003917216
0.0010876055 -0.0014632925 0.031773407 -0.0019556226 -0.034797646 0.039237045 0.082129255 -0.032947272
0.021277169 0.006759529 -0.023115434 -0.013927683 -0.030035436 -0.0640159 -0.025208693 0.026967524
-0.028377477 -0.0337538 0.023789648 -0.023632951 -0.03604016 0.052738857 0.020606617 0.038175497
-0.0453191 0.007962585 0.042823073 0.028113488 0.0145452665 0.021682028 -0.03738187 -0.048086815
-0.06400358 -0.004514686 -0.02521359 0.033696197 0.017867308 0.019725129 0.022683244 0.056047272
-0.027944596 -0.052732173 0.060982402 0.027661135 0.055346884 0.012396367 0.009838309 -0.007659165
0.033615377 0.010663668 0.02230227 -0.038903058 -0.024650475 -0.0071580024 -0.00020050124 -0.02407722
0.04427555 0.013126689 -0.026415551 0.030156417 -0.041626856 0.015147027 0.039495014 -0.046580523
0.026027653 -0.02559678 -0.01128011 0.031016134 -0.00597507 0.03499686 0.06691994 0.01607932
0.03907466 -0.011333264 -0.020839866 -0.04922879 0.011422648 0.016087621 -0.043793105 -0.02397504
-0.058304273 -0.018522067 0.008620257 -0.03669768 0.015123107 0.09637622 -0.024490058 0.051671308
0.007705894 -0.02337098 0.060000695 -0.0025606083 0.011294098 0.040579624 0.0048062126 -0.027025938
0.029810147 -0.0081096105 -0.009494242 0.016343372 0.04957606 0.020483643 -0.02930403 -0.0006022168
-0.03827273 0.02299759 -0.04667619 -0.027036564 -0.0029719055 -0.040947046 -0.007325737 -0.028556198
-0.022615159 0.033753894 0.028406324 -0.015925875 0.024069628 0.00972003 -0.06596208 -0.0071207457
0.08963232 0.0066917026 -0.0070440797 0.03652374 -0.030568676 0.00034728093 -0.0031963366 -0.03479074
0.013854715 -0.008983921 0.029437779 0.015854908 0.02384455 -0.03994218 0.00086400995 -0.015860936
0.045024205 -0.020104537 -0.012661299 0.013578993 0.0064316913 0.0068258853 -0.030664816 0.025122087
0.049872525 0.03171277 0.016020343 -0.009158906 0.016347738 -0.015075204 -0.012851038 -0.023260577
0.0059184236 0.011678481 -0.002953942 -0.04341863 -0.035775445 -0.0006217867 0.006674312 -0.040853105
0.044553615 0.04084501 -0.08774994 -0.044094596 0.060049348 0.065717116 -0.007878741 0.025305575
-0.019412015 -0.08588629 0.028211158 -0.0037354655 0.0014846867 0.020946851 -0.020969316 0.020071305
-0.07797364 -0.06230373 0.031589624 -0.014725678 0.031445865 -0.048762254 -0.023262152 -0.023371382
0.03317632 -0.011885935 0.027651424 0.007023376 -0.019373056 0.036454815 0.0451115 -0.038709853

conv2.0.bias f4 [36]
00000000: c044 4a3d 8114 423d c10a 843c 36a9 43bd
00000010: 4518 253d 795a 083c d3fb 163d 58c0 c33c
00000020: f90b b6bc 94f6 bd3b 6daf 25bd 265e febc
00000030: 5a00 ed3c 73a5 1dbd 89a8 993c 014f b23c
00000040: f4c5 643b 4436 8d3c 5c0f 58bc 6a90 283d
00000050: 610b 133c 328e 25bd e720 f33b 2bca 4c3c
00000060: 35f3 a53c 54e7 1c3d f201 583c 9a67 463d
00000070: 265a 5f3b a034 53bc 54df 2bbc a0a8 443b
00000080: 9b9d f2bc 24b5 3c3d b072 c23c 60cb ffbc
0.04938197 0.047382835 0.01611841 -0.047768794 0.04030635 0.008322352 0.036861252 0.023895428
-0.022222506 0.0057972167 -0.040450502 -0.031050753 0.028930832 -0.038487863 0.018757122 0.021766188
0.0034908028 0.01723779 -0.013187256 0.04115335 0.008974881 -0.04041881 0.0074196937 0.0124993725
0.020257572 0.03830655 0.013184058 0.048438646 0.0034080832 -0.012890965 -0.010490257 0.0030007735
-0.029616168 0.046071187 0.023736328 -0.031224906

conv2.1.weight f4 [36]
00000000: 6072 903f 501e 8d3f e709 8f3f ca30 903f
00000010: 0e10 903f 37e1 8e3f e1e8 8e3f 3a16 913f
00000020: c286 8e3f 266c 8f3f c1ad 8f3f 664b 8f3f
00000030: e109 8f3f e7d6 8b3f 46ef 8f3f bb2a 8f3f
00000040: f10f 903f c686 8e3f 9945 8e3f 4c4b 8f3f
00000050: 932a 8f3f 4ec8 8e3f 1993 903f dfb3 903f
00000060: c257 913f 50ef 8f3f 4c72 903f 1a10 903f
00000070: 6e4b 8f3f 5a4b 8f3f 4d72 903f 1d66 8e3f
00000080: e286 8e3f b02a 8f3f 2eef 8f3f 5dce 8f3f
1.1284904 1.1024876 1.1174897 1.1264889 1.12549 1.116248 1.1164819 1.1334908
1.1134875 1.1204879 1.12249 1.1194885 1.117489 1.0924958 1.1244895 1.1184915
1.1254865 1.113488 1.111499 1.1194854 1.1184868 1.1154878 1.1294891 1.1304892
1.1354907 1.1244907 1.1284881 1.1254914 1.1194894 1.119487 1.1284882 1.1124913
1.1134913 1.1184902 1.1244867 1.1234852

conv2.1.bias f4 [36]
00000000: 8160 673d 3a3f 923c d2a9 c83c 7193 4e3d
00000010: 01d2 253d fcb2 8e3c 8527 093d 4c60 d13c
00000020: 1448 c5ba 0d71 f13c 8abb 253d 1023 363d
00000030: 7557 f13c d988 d83c c8ab 7f3d dcee 0c3d
00000040: 2acd 213d c01d b83c 7617 2e3d d3f1 2d3d
00000050: 6760 e93c f3c3 213d 9a63 d53b b035 3e3d
00000060: 6285 7f3d d3aa 9f3c 7123 363d 2ec3 0c3d
00000070: 99fd 663d 46bc 7f3d 8ac1 1d3d e235 d03c
00000080: 930a 2a3d 9d74 1d3d 8c81 4e3d 4c47 0d3d
0.056488518 0.017852414 0.02449504 0.05043358 0.04048348 0.01741933 0.033484954 0.025558613
-0.0015051388 0.029472852 0.040462054 0.044467032 0.029460648 0.026432442 0.062419683 0.03440748
0.0395023 0.022475123 0.042502843 0.04246695 0.028488351 0.039493512 0.0065121176 0.04643792
0.062383063 0.019490635 0.044467393 0.034365825 0.056394193 0.06243541 0.03851465 0.025416318
0.04151399 0.03844129 0.050416514 0.034491822

conv2.1.running_mean f4 [36]
00000000: 3745 483d 8724 7f3d f8f5 313c ee03 19bc
00000010: 14ed 0d3e 4d22 fa3c e666 1a3e 68f0 3a3d
00000020: 13f3 f33c c261 ef3c d18c 0f3c 4523 103d
00000030: 8acb da3d 2c4d 543c 1a14 393d c673 ea3d
00000040: e9dc 823c 6031 40bd 133d 8ebd 6ccc 813d
00000050: cdeb 7bbc 7481 2bbd 0d43 043d 5f6f 823d
00000060: ab33 033c 37d9 803d 2f68 993b 95c3 c63d
00000070: 774e a4bd c853 383b d804 af3d 62ba cfbb
00000080: 3647 85bd c90c 8ebd 7dc3 223c 85d8 b03d
0.048894133 0.062290695 0.010861866 -0.009339316 0.1385997 0.030533934 0.15078315 0.045639426
0.029778993 0.02922142 0.008761601 0.035189886 0.10683353 0.012957852 0.045185186 0.11447863
0.015974479 -0.046922088 -0.06945243 0.063378185 -0.0153760435 -0.041871503 0.032290507 0.063688986
0.008007924 0.062914304 0.004681609 0.09705273 -0.080227785 0.002812611 0.08545846 -0.0063393572
-0.06507723 -0.06936032 0.009934303 0.08635048

conv2.1.running_var f4 [36]
00000000: ae9b e63a bd43 e23a fc09 ec3a 877e e93a
00000010: 8a3c 2c3b 2183 f63a 5990 ea3a 1378 943a
00000020: ec04 d03a 4ced fc3a 5f40 b63a c10f c23a
00000030: 8dee b73a 44e6 383b 6ed6 ad3a 8356 fc3a
00000040: bc31 c93a 1e3c e63a 8bd1 ff3a fb5e f43a
00000050: 4fe6 913a 57b5 dd3a 3299 9d3a f5b7 0e3b
00000060: 1d83 013b 073a db3a 1ab5 0c3b 9c39 a73a
00000070: d50c d43a 61d9 ee3a 9ea4 d53a 5bc8 f83a
00000080: 4a7d ed3a 6097 cf3a 0a75 cc3a b586 5c3b
0.0017594004 0.0017262619 0.0018008347 0.0017814197 0.0026281201 0.001880739 0.0017895802 0.0011327289
0.0015870607 0.0019296794 0.0013904682 0.001480572 0.0014032886 0.002821342 0.0013262758 0.0019251857
0.0015349905 0.0017565524 0.0019517405 0.0018644029 0.0011131259 0.0016915005 0.0012023805 0.0021777127
0.0019761987 0.0016725668 0.002147025 0.0012758258 0.0016178141 0.0018222743 0.001629967 0.0018980609
0.0018119004 0.001583796 0.0015598845 0.0033649628

out.0.weight f4 [128, 1764]
00000000: ebdf 21bb 68b7 35bb 2ca1 a2bc 3a18 44bb
00000010: d2d9 453c ec16 e43c 447b 103d 4fdd 13bd
00000020: e0ba 4639 fa98 7e3c 38e2 0a3c a2db 5e3d
00000030: 09be 64bc 563f 863c 3280 c53c 1f1b c0bc
00000040: 70c2 153d 479e 793c 9518 633c 4552 8c3b
00000050: 3768 6fbc c725 d8bc fc7a d83b 00a1 11bc
00000060: decf c7bc 6c13 46bc fffe 8eba 3733 39bc
00000070: 9078 3cbb 878b 683b beb2 d23b 2ffb 0b3b
00000080: d771 89bc 50c8 f7bc 2e76 b4bb 0733 333d
00000090: 1db9 c43c 6039 373d 0126 e33c 2a20 243c
000000a0: e3fb 6dbc a792 dabb 9fd2 9f3b c614 e2bc
000000b0: 89bf 293d 8c9c 34bb 41ab 023d 5112 5c3c
000000c0: 023c b0bc ff03 43bc b0a6 f33b 5acb bbbc
000000d0: e4cb d239 32a0 353d c2bb 023d 5a87 e6ba
000000e0: 4267 35bb 8219 813c 4155 30bc c669 083d
000000f0: 2bfe 2b3d 47be 2bbb 5b4a 893c 0779 493c
00000100: 1828 68bc d1a2 ccbc e4f5 703c 48cb 463c
00000110: 0621 66bc 70e3 f03c 47df 2cbd fbb9 193d
00000120: 551d a83c 5c80 483b 4edb 2bbc a15a 643c
00000130: 8590 b83c fde0 1abd 8b2c 533c e9df 73bc
00000140: d166 a7bc ee18 bdba 496f a8bc 9e47 253c
00000150: 9fbc d93c 789e e7bc 8d67 303c 9c79 cf3b
00000160: d37c 40bb 54e8 0c3c a44f 4c3c 1baa c1bc
00000170: 644b 54bb 14a3 74bc 3b15 723c a9d9 9e3c
00000180: 68d9 5c3a b66b f3ba 4dc4 213c b861 673c
00000190: 66d1 8d3d db91 843b ce14 133d 32b3 a13c
000001a0: 9bae 273c 9c61 01bd 859d c83c 614d c2bc
000001b0: bdd3 18bd 8411 263d af70 29bd 903d fa3a
000001c0: 913d 5b3c 3654 103d 0dbd 1dbd 0e77 223b
000001d0: e81b 443d b628 ecbc 263b 983c 051b 893b
000001e0: 2298 b3bc 1db6 10bd 3c79 fb3c 8daa 43bb
000001f0: 15d7 133c 9eec c03c 4120 033d 54ed 7c3b
00000200: eae6 b9bc ad40 9a3c d12b 11bc 8823 dd3c
00000210: 489b e73c b301 b43c b8f6 803c 89a5 7a3c
00000220: 14b4 3bbb 294a 55bc 1272 c63c 783a be3c
00000230: 44fe 5dbc d1d7 1f3c 474d 22bd 9869 a23b
00000240: 95d5 b73b 5ef0 13ba 765a 8cbc c580 adbc
00000250: 674b 143c 90fc 1b3c 1d7b 05bc 9ef4 1b3d
00000260: 5eb9 42bc 9d5c 763c c0f2 a239 8a25 18bd
00000270: 0300 2ebd e3ae edbb a306 983b af53 6a3c
00000280: ce2f 8fbc 4ab7 b03c b11d a43c f027 04bd
00000290: cabe 85bc 250a 193b 0647 29bc e2d5 a0bc
000002a0: 3082 a0bc 6c97 023d ce8a 913c 7192 8b3d
000002b0: c370 2bba 343a e9b9 534d cbbc a0e2 a03c
000002c0: 3189 c0bb 0823 1abc faa7 8bba e3c1 ae3c
000002d0: bfbb f5bc 510b 15bd cc2b 1e3b bebe 46bc
000002e0: 4c33 83bc e3ce ff3b ea2d cfbc 303b 2938
000002f0: 2187 1f3c 96e1 c7bb 0c66 683b 13cc cd3c
00000300: bff5 3d3b 81f9 a6bc 9447 42bc 21d7 b6bb
00000310: 945d 093d 5c02 4e3c acc7 1cbc 450d 1cbc
00000320: 8387 be3a 9fa8 ce3c eb55 823c 08a0 c93b
00000330: 96ee 1d3d ba60 63bb 580e ca3b a09c 143c
00000340: d2ce 39bc 4751 173c 63d7 1bbd 889a 553c
00000350: 7c1c f33b 4a82 f4b9 92c1 f23a 4647 123c
00000360: f5e5 68bc f575 03bd da99 f039 ad8e b6bc
00000370: 72cf b9ba d453 00bc 7a16 2ebb a72f 87bc
00000380: 38d7 31bd 33a3 89bc 4120 1d3c a619 b03c
00000390: 8586 96bb ac39 e53b bc4d 33bc 5ef8 91bc
000003a0: 1733 d5bb 3753 bf3c 0e07 753c 1dfc b1bc
000003b0: e9bf dabc 9a53 c6bc bfa3 08bd 5a87 01bc
000003c0: c359 bbbb eea5 54bc f620 9dbc 7835 d5bb
000003d0: 31b0 38bb 5982 ddbc 0629 873c 9dae 763c
000003e0: f376 97bc c7c7 47bc c02f 01bc c457 b4bc
000003f0: 403c 6e3c 3168 a1bc ff4d 1e3c 61c1 53bc
-0.0024700116 -0.0027727727 -0.019852243 -0.0029921667 0.012075858 0.027842961 0.035273805 -0.03609973
0.00018952368 0.015539402 0.008476786 0.054408677 -0.013961324 0.016387623 0.02410898 -0.023450432
0.036562383 0.01523549 0.013860841 0.004282268 -0.014612249 -0.026385201 0.0066064578 -0.008888483
-0.024391111 -0.0120895915 -0.0010909735 -0.0113037145 -0.0028758384 0.0035483555 0.006429999 0.0021359434
-0.016777916 -0.030246884 -0.005507252 0.043749835 0.02401405 0.04473245 0.027728083 0.010017434
-0.0145253865 -0.0066703144 0.004877403 -0.027597796 0.041442428 -0.002755913 0.0319016 0.013432101
-0.021512989 -0.011902808 0.007435642 -0.022924114 0.00040206232 0.044342227 0.03191734 -0.0017587945
-0.0027679955 0.015759233 -0.010762514 0.033304 0.04199044 -0.0026205943 0.016759088 0.012296922
-0.014169715 -0.02497998 0.014707062 0.012133427 -0.014045959 0.029405326 -0.04220512 0.03753088
0.0205218 0.0030594086 -0.010489298 0.013937623 0.02252985 -0.03781222 0.012889038 -0.014884927
-0.020434769 -0.0014426985 -0.020560877 0.010087876 0.0265792 -0.028273806 0.010766876 0.0063316356
-0.0029371276 0.008600313 0.01247016 -0.023640683 -0.003239357 -0.014931459 0.01477557 0.019390898
0.000842473 -0.0018571529 0.009873462 0.014122419 0.06924705 0.0040457076 0.035908513 0.019738767
0.0102345 -0.03158723 0.024489174 -0.023718538 -0.037311304 0.040544048 -0.04136723 0.0019091833
0.013381378 0.03523656 -0.03851037 0.00247902 0.047878176 -0.028828006 0.018582892 0.004184129
-0.021923129 -0.035329927 0.030697457 -0.0029856295 0.0090234475 0.023550328 0.03201318 0.0038593607
-0.022693116 0.018829668 -0.008860544 0.026994482 0.028272286 0.021973467 0.015742645 0.015298256
-0.002864127 -0.013018169 0.024224315 0.02322124 -0.013549391 0.0097560445 -0.03962448 0.0049564354
0.0056101778 -0.00056434225 -0.017132979 -0.021179566 0.00905118 0.009520665 -0.008147028 0.038075082
-0.011885015 0.015036729 0.0003107991 -0.037145175 -0.04248048 -0.007253514 0.004639463 0.014302178
-0.01747885 0.021571774 0.02003369 -0.03226465 -0.016326327 0.0023351994 -0.010331875 -0.019633237
-0.019593328 0.03188269 0.017766383 0.06815041 -0.0006539935 -0.00044484588 -0.024817144 0.019639313
-0.0058757295 -0.009407766 -0.0010654919 0.021332687 -0.02999675 -0.036387745 0.0024134992 -0.012130437
-0.016015671 0.0078066452 -0.025290448 4.0347863e-05 0.009736807 -0.00609989 0.0035461215 0.025121724
0.0028985587 -0.020382645 -0.011857886 -0.0055798446 0.03353651 0.012573805 -0.00956909 -0.009524648
0.0014536235 0.02522689 0.01591011 0.0061531104 0.03855761 -0.0034695105 0.0061662607 0.009070545
-0.011340814 0.009235687 -0.038047206 0.013037331 0.007419167 -0.0004663638 0.0018520823 0.008928126
-0.014214982 -0.032094914 0.00045890996 -0.02228483 -0.0014176203 -0.007832486 -0.002656369 -0.016502215
-0.04341814 -0.016801452 0.009590209 0.021496605 -0.0045936727 0.0069954004 -0.010943826 -0.017818626
-0.0065063345 0.02335511 0.014955295 -0.021726662 -0.026702838 -0.024209786 -0.033359285 -0.0079058055
-0.0057174875 -0.012979014 -0.019180756 -0.006506618 -0.002818119 -0.027039694 0.016499054 0.0150562795
-0.018489337 -0.012193627 -0.00788492 -0.022014506 0.014540732 -0.019703003 0.00966215 -0.012924523

out.0.bias f4 [128]
00000000: ab99 5cbc afb8 b9ba 120b b43c 06bf 6f3c
00000010: 975c 8cbb 60ec 763c 9cb6 783c 5cfd e73b
00000020: cfcd 8a3c 3683 4a3c 1b73 993c 8383 3f3c
00000030: bc7f 9e3c 54c3 a93c 8e9a 59bb 782c 2fbc
00000040: 1c33 183d 8084 a43c aa47 8f3c ce2c e33c
00000050: c639 53bc d72d 353c e549 053d 8c4d 6e3b
00000060: c80e 823c bccf 8c3c dd3d b13b 0644 87bc
00000070: b10a 4b3c 7ccc 64bc 6f3f cbbb 7090 4cbc
00000080: 663a 08bc ccd8 773c f1d2 883c 09b0 44bc
00000090: 5e91 82bc 2a04 3c3c 83f2 4b3c 80b0 a6bb
000000a0: 5652 0e3d 1537 043c 4c51 193c b8ca 26bc
000000b0: c82a 5a3b 0e9f 3bbc a422 413c 79f3 e6bb
000000c0: 55c3 bc3c f4a6 26bb 4ce3 633b ba7f d83c
000000d0: 7422 5ebc b20a b53c e4c0 af3c c63a 133c
000000e0: 77cf d73b 21d8 823c c747 833c a626 4c3c
000000f0: c526 4fbc 2cc6 22bb 8395 df3c b2ee 97bc
00000100: 4ef8 88bb 9c23 18bb 7c7f f2bb be26 833c
00000110: b2df 433c 640c a23c b319 373c 265c c1bb
00000120: 2042 623c 756b ba3c 82f6 77bc 886c 153c
00000130: 1969 75bc ac5d 9a3a 0501 0fbc dd9f 95bb
00000140: f305 a33b 8152 503c d6b5 983c d69c 65bc
00000150: 82ce 42bc aac6 90bc 32da 49bb c4cc 1ebb
00000160: a638 ad3b 9b2b 733b 9f7f 2b3c 1173 773c
00000170: 6e20 b9bc 7f6e 3a3c dc6f ad3b 402d 00bb
00000180: ac3c 25bc dadd 2dbc 9a5a 94bc cec2 fbba
00000190: 98ea d93c c776 85bc fc06 c4bc 9ae1 36bc
000001a0: f88e 1ebc 0aea b83c 92ac a9bb 4f54 8b3b
000001b0: 7fa9 783c 5e09 313c 3c5d 40bb 1442 a73b
000001c0: e7d6 fd3b a464 fbbb dce1 42ba e747 c1bc
000001d0: 261d 6bbb 6061 48bb 3a0e 063c 68a2 57bc
000001e0: c070 72bc 000e ac38 5600 63bc 06d8 2abb
000001f0: 9919 87bc a32d 87bc 54f0 60bb 978e 883c
-0.013464372 -0.001416942 0.021977935 0.014632946 -0.0042834985 0.015071005 0.015180256 0.0070797633
0.01694384 0.012360385 0.018731644 0.01168907 0.019348018 0.020723023 -0.0033203694 -0.0106917545
0.037158117 0.020082712 0.017490227 0.027731325 -0.012892192 0.011058292 0.032541174 0.003636214
0.015876189 0.0171889 0.005408986 -0.016511928 0.012392686 -0.0139647685 -0.0062026302 -0.012485608
-0.0083147045 0.015127372 0.016702147 -0.012004861 -0.015938457 0.011475602 0.012447956 -0.0050869584
0.03474649 0.008069773 0.009357762 -0.010180168 0.003328966 -0.011451496 0.011788044 -0.007048067
0.02304236 -0.0025429102 0.003477293 0.026428092 -0.013558019 0.022099826 0.021454282 0.008986181
0.006586011 0.015972199 0.016025437 0.012460386 -0.012643521 -0.0024837358 0.027292972 -0.018546436
-0.004179991 -0.0023214584 -0.007400451 0.016009685 0.011955189 0.019781299 0.011175561 -0.0059008775
0.013809711 0.022756318 -0.015134456 0.009120114 -0.0149786705 0.0011777184 -0.00872827 -0.0045661763
0.0049750744 0.012714983 0.018641394 -0.014014443 -0.011890056 -0.017672855 -0.003080022 -0.0024230937
0.005286294 0.0037104848 0.010467439 0.015103118 -0.022598471 0.011378883 0.0052928757 -0.001955822
-0.010085266 -0.010611976 -0.018109608 -0.0019207837 0.02660112 -0.016291989 -0.023929112 -0.011162186
-0.009677641 0.022572536 -0.0051780427 0.0042519937 0.01517713 0.010805456 -0.0029352447 0.0051043127
0.0077465656 -0.0076719094 -0.00074341684 -0.023593856 -0.0035875528 -0.0030575618 0.008182103 -0.013161279
-0.0147973895 8.204207e-05 -0.013855061 -0.0026068701 -0.016491698 -0.016501253 -0.0034322934 0.016669555

out.2.weight f4 [37, 128]
00000000: d95a 3e3c b251 94bd fbe3 ac3d 2bcf 8ebd
00000010: 48c6 9a3c f9ae 86bd 019b 12be 35cc 08bc
00000020: e3d4 9b3b b66b c23c bbb4 95bd 4a12 77bd
00000030: f4c5 2d3c 15c9 da3a 24da 62bc 1386 083d
00000040: a37c e8bd 95c0 7e3d 4ff3 73bd 7e7b 00be
00000050: b125 093c 113b 1cbd e6b8 38bd efe6 093c
00000060: e08a 97bc c1db 5cbc dbe9 3fbd 5576 3bbc
00000070: 4196 85bc 6e13 0dbc 59f1 633d a0ff 263d
00000080: 8026 8dbd 597e 6cbd b5ec 0fbd ca1a e6bd
00000090: 370c 083d 5af5 153d 9498 32bd 58a7 b3bc
000000a0: ce5d 17be 2d73 3abd 26df d23b 4898 e1bc
000000b0: 48be 07be 62f1 c9bc 3ffb 90bd 8f93 e8bd
000000c0: 4e8d b7bd 8c47 77bd bd87 dbbc c2e4 babb
000000d0: 57ad e6bc aaaf 13bc 6231 44bd 4e68 6fba
000000e0: 4c39 95bc 1b99 7a3d 4557 713c b528 07bd
000000f0: 847a 90bd f092 1abe 47e0 9abb 1a0a 7dbd
00000100: 5fbd 313c aa0c 933c 3a48 a93d 88ea a3bd
00000110: 5540 45bd 5356 0dbb d3e9 e6bd 7198 09bd
00000120: f32e 98bd 93ec 58bc 635b 853d 172e 98bd
00000130: ac37 9bbd 1946 7cbd 7a22 21be 91cf d5bd
00000140: 3042 983d aab4 a63d e054 023d c0c7 88bd
00000150: c586 80bd 69ec 663c b46c e939 070d 483b
00000160: f723 9d3d a26a 0cbd 5717 bfbd 5a91 803d
00000170: a1be abbd 1ffe 7b3d a96a eb3c d4bb bdbc
00000180: 1cad 5fbd bc7b c8bd 5285 8fbd f501 26bd
00000190: c184 e3bd b467 22bc 274b 81bd 706d 04be
000001a0: 0b3b b03d b9f1 deba c4c6 b7bc 72f7 863c
000001b0: 5f6b 083d 0dfd 50bd 635d 74bd bfbf 1abd
000001c0: 8024 94bd 9fa4 0cbd 39a0 efbc 63e4 52bd
000001d0: 99d7 923d 8f60 dcbd c887 11be 729b c0bc
000001e0: affc 383c a0df 343b 4518 a7bb 7d02 93bd
000001f0: ada8 a8bd 3513 b93c 597b 57bb 8faa 3f3d
00000200: 318d dbbd 23e8 fabc b60b 513d 8b60 0c3d
00000210: 54f3 b5bd 466d 0abd fab0 b8bc 0c57 9a3c
00000220: 7bdc 3cbd 5d2c 96bc d441 07bd acf3 18bd
00000230: f4fa ae3c 8f61 133d af8b 12be 5069 553d
00000240: ca37 cd3c ebd2 efbc 8313 8cbd c8ef 03bb
00000250: 17d6 dc3c 0670 7abd d17d 7a3d ea20 8abd
00000260: 85a2 b8bd bc52 1fbe 3bd8 cabd 3e5a 32bd
00000270: ac22 e5bb 3485 61bd 8a74 8bbd 6c2f 1cbb
00000280: 355b 843d a6cd 8c3d 8bd6 fabd 04ea 05bd
00000290: 8a1e 6fbb 64e3 c6bd 80ab 10bd 5b32 943d
000002a0: f9a1 2cbe b895 713d fdb3 0f3d 8798 ae3c
000002b0: 55c8 e33c c43b 383d d321 e23b fa55 80bd
000002c0: 1d7b 55bd ab51 36be adaf 09be 4359 66bc
000002d0: 51d5 1a3d 4522 a9bb 6786 0a3d 1cec fe3c
000002e0: dda8 16be a37d 4dbd 6bac 3ebd a77e 9ebd
000002f0: 90a5 a7bd 2f4b c0bc 3038 d1bd c7ea 1f3d
00000300: 172f d33c 247f 04bc b6eb a93d 2137 d3bd
00000310: ecf3 70bd 7f66 de3c b6b2 c73c a779 fdbd
00000320: a5ea a53c c883 5f3c 63eb b43c f7b8 813d
00000330: 07ce 92bd 99cc f03c e5b2 d3bd fa9c 67be
00000340: 1b6e f83b 4246 61bd cadf ee3c 2b26 10bd
00000350: f082 143d 322e d1b9 8ef9 7e3d a89c 1d3d
00000360: 5807 4c3d 44ff 10bd 28c9 fdbd 1401 583d
00000370: b53e ccbd 436d 97bd fbbd 82bd 17aa 51bd
00000380: c34e 763c fc6f a9bd 1e3a 6e3d fca2 a2bd
00000390: 7177 1cbd b44e cebd ac99 6cbd 363b 1dbe
000003a0: b1ac a5bb df23 393d 8f1c a2bd ba1e 04be
000003b0: a33e 933d 33dc 94bd 0269 48bd 0e62 333d
000003c0: f45b f5bd 626f 42bd dd0b 553d f6f2 173d
000003d0: b2ec 793a 9f30 a1bd 8a47 53bd f4dd a5bd
000003e0: 06b9 d63c e0c9 4a3c dd87 f13c 72cd 96bc
000003f0: 5315 ab3b dfc2 303d 30c2 c6bc 83be 843d
0.011618339 -0.07242145 0.08441921 -0.06973108 0.018893376 -0.06576342 -0.14316942 -0.008349468
0.0047556027 0.023733001 -0.07309862 -0.060320176 0.010606278 0.0016692007 -0.013845954 0.03333099
-0.113518976 0.06219538 -0.05955821 -0.12547109 0.008370803 -0.038142268 -0.045098208 0.008416875
-0.018498838 -0.013480128 -0.04685388 -0.011441787 -0.016306998 -0.008610589 0.05565009 0.040771127
-0.06892109 -0.057737682 -0.03513785 -0.11235578 0.033214774 0.03661094 -0.04360254 -0.021930382
-0.14781877 -0.045519996 0.006435293 -0.027538434 -0.1325618 -0.024651233 -0.070791714 -0.113562696
-0.089624986 -0.060370967 -0.026798123 -0.0057035396 -0.028158827 -0.00901405 -0.047898658 -0.0009132669
-0.018215798 0.06118117 0.014730279 -0.032997806 -0.07054618 -0.15095115 -0.004726443 -0.06177721
0.010848372 0.017950375 0.08265729 -0.08003718 -0.048157055 -0.0021566346 -0.11275067 -0.033592645
-0.0743083 -0.013239997 0.06511571 -0.07430666 -0.07578978 -0.061590288 -0.15735808 -0.10439981
0.07434499 0.08139928 0.031819224 -0.06678724 -0.06275705 0.0140944505 0.00044522213 0.0030525343
0.076728754 -0.03428138 -0.093306236 0.062777236 -0.08385969 0.061521646 0.028737383 -0.023160852
-0.05460845 -0.097892255 -0.07007851 -0.04052921 -0.11109305 -0.00991242 -0.06313162 -0.12932372
0.086050116 -0.0017009295 -0.022433646 0.016475413 0.033305522 -0.051022578 -0.059659373 -0.03778052
-0.07233524 -0.034336682 -0.029251205 -0.051487338 0.07170028 -0.107606046 -0.14211953 -0.023511622
0.011290713 0.0027599111 -0.0050993287 -0.07178209 -0.08235297 0.022592166 -0.0032879917 0.046793517
-0.107202895 -0.03062827 0.05103656 0.034271758 -0.08884302 -0.033795618 -0.022545327 0.018840335
-0.046108704 -0.018331701 -0.033021763 -0.03734176 0.021359898 0.03598171 -0.14311098 0.052102387
0.025051016 -0.029275378 -0.06839659 -0.0020131934 0.026957555 -0.06114199 0.061155144 -0.06744559
-0.09015373 -0.15558904 -0.09904524 -0.043543093 -0.0069926586 -0.055058673 -0.068093374 -0.0023831977
0.06462709 0.06875162 -0.12247952 -0.032693878 -0.0036486709 -0.0971134 -0.035319805 0.07236167
-0.16858663 0.058980674 0.03508376 0.021312965 0.027805487 0.044978872 0.006901005 -0.06266399
-0.052119363 -0.17804591 -0.13445921 -0.014059368 0.03780109 -0.005161556 0.033819582 0.031118445
-0.14712854 -0.050168645 -0.04655115 -0.07739001 -0.081858754 -0.02347335 -0.10215795 0.03904226
0.02577929 -0.008086953 0.082969114 -0.103132494 -0.058826372 0.027148483 0.024377208 -0.12376719
0.020253489 0.013642259 0.022084897 0.06334107 -0.07168203 0.029394435 -0.10336856 -0.22618476
0.007581485 -0.054998644 0.029159445 -0.03519265 0.036257684 -0.00039898005 0.062249713 0.038479477
0.04981169 -0.03539969 -0.12391883 0.052735403 -0.09972898 -0.07393887 -0.06383892 -0.0511876
0.015033427 -0.082733124 0.058160894 -0.07941243 -0.038199846 -0.10073605 -0.05776374 -0.15354618
-0.005055987 0.045200225 -0.07915603 -0.12902346 0.071896814 -0.07268562 -0.04892827 0.043794684
-0.11980429 -0.047469504 0.052013267 0.03709694 0.00095338665 -0.07870602 -0.051581897 -0.08098975
0.026211273 0.012377232 0.02948373 -0.01840851 0.005221048 0.043154594 -0.024262518 0.0648165

out.2.bias f4 [37]
00000000: c18a 17be a46d 9abd a3dd f6bd a6c2 59bd
00000010: b8fc 75bb 9dbf 11bd 13b7 d3bd ffe1 f1bd
00000020: 7fda 78bc d20d 183d ab73 c8bc 8198 2e3d
00000030: 9d3f 963c dc48 f4bd 18b0 92bd 5157 87bd
00000040: 3e71 23bd 04f3 453d b707 383d ad46 b8bc
00000050: c903 e1bd 2cb2 973c bf09 143b b60c 50bd
00000060: 2585 c3bc ef0c e9bd 7b7f 00be 7328 3c3c
00000070: d94b fdbd d131 7bbc 79f5 4abd 0688 adbd
00000080: 2cae 173d bc41 bdbd 7a82 193d e207 14bc
00000090: 8644 35bd
-0.14799024 -0.075404435 -0.120539926 -0.053164147 -0.0037534665 -0.035583127 -0.10337653 -0.118106835
-0.015188812 0.037122555 -0.024469217 0.042625908 0.01834088 -0.11927959 -0.071624935 -0.06608451
-0.039902918 0.04832746 0.044929232 -0.022494638 -0.1098705 0.018517576 0.0022588817 -0.050793372
-0.0238672 -0.1137942 -0.1254863 0.011484253 -0.123679824 -0.015331701 -0.049550507 -0.0847321
0.037031338 -0.092410535 0.037477948 -0.0090350825 -0.044254802
